Task1-ActionSpotting/Pooling/models/MAXPOOL_v1/model.pth.tar (torch, 27237 bytes, 6 tensors)

fc.weight f4 [4, 512]
0	0x3c814e0e	0.01578429
1	0x3b8adc56	0.004237692
2	0x3c077b06	0.008269077
3	0x3c3fa7cd	0.011697722
4	0x3c7880da	0.015167439
5	0x3afff761	0.0019528681
6	0x3bf859e6	0.007579076
7	0x3c2d1484	0.010563973
8	0xbba61be3	-0.0050692423
9	0xbb103788	-0.0022005755
10	0x3c66b5dc	0.014081445
11	0x3b96c25f	0.0046008076
12	0x3b9df7d0	0.0048208013
13	0x3bba4ca7	0.005685407
14	0x3c07c2f6	0.008286228
15	0xba33c0d7	-0.00068570435
16	0x3beadb00	0.00716722
17	0x3bb94652	0.005654135
18	0x3cc89703	0.02448607
19	0x3b141491	0.0022595266
20	0x3bd98f3e	0.0066393903
21	0x3b93242f	0.0044903974
22	0x3ca3dda6	0.020003151
23	0x3c60f54c	0.013730358
24	0x3c10a84a	0.008829186
25	0x3bc64c02	0.0060515413
26	0x3cd32d49	0.02577843
27	0xbc37b563	-0.01121268
28	0x3b366e6b	0.002783681
29	0xbb5baab0	-0.0033518486
30	0x3cb59d0f	0.022169618
31	0xbcae3ccb	-0.021269223
32	0xb9798c23	-0.00023798695
33	0xbc864a27	-0.01639278
34	0x3aa904ff	0.0012895166
35	0x3a813136	0.0009856585
36	0x3bd8ae07	0.0066125426
37	0x3ce9cb5c	0.028539352
38	0x3bc775ad	0.006087026
39	0x3bbdca64	0.005791949
40	0xbd01ce2e	-0.03169077
41	0x3c926246	0.017869126
42	0x3c8c70cb	0.017143628
43	0xbc82953a	-0.015940297
44	0x3ca11f1d	0.019668156
45	0xbc457f9f	-0.012054353
46	0x3bbc7605	0.0057513737
47	0x3b18c0d9	0.0023308306
48	0xbc7f918c	-0.015598666
49	0xbba1aeaa	-0.0049341517
50	0xbc9e1577	-0.019297345
51	0xbcb3fc57	-0.021970911
52	0x3c3d7ba6	0.011565125
53	0xbb7b564a	-0.0038350993
54	0x3c046a55	0.008081992
55	0xbc1e9c00	-0.009680748
56	0xbbba9414	-0.005693922
57	0xbcdfcd96	-0.02731971
58	0x3b0ce282	0.0021497314
59	0x3bf4b3c7	0.00746772
60	0xbc9dadde	-0.019247945
61	0xbbe57b03	-0.0070031895
62	0xbc2fbd3a	-0.0107262675
63	0x3b96e170	0.004604511
64	0xbd076067	-0.03305092
65	0x3c1b8ed0	0.009494498
66	0x3c94cfee	0.018165555
67	0x3c466c3c	0.012110766
68	0x3cbf0188	0.02331616
69	0xba7a15c0	-0.0009539984
70	0xbc287b18	-0.010283254
71	0xbb6b9c8c	-0.0035951464
72	0xbbb76505	-0.0055967593
73	0x3ba6e15c	0.005092783
74	0xbb0a2c19	-0.0021083413
75	0xbc4d9ad1	-0.012549118
76	0x3b50405e	0.0031776647
77	0x3c0e67c3	0.008691731
78	0xbc8ce2d9	-0.017198013
79	0xbc103fe4	-0.008804295
80	0xbd20a7db	-0.03922258
81	0xbd013ca3	-0.03155197
82	0xbcf4abbd	-0.029867047
83	0xbcbdcc68	-0.023168758
84	0xbc42fd23	-0.011901173
85	0x3ae80f9d	0.0017704848
86	0x3c77cd2f	0.015124603
87	0x3a3b1f6b	0.00071381655
88	0xbcd57580	-0.026057005
89	0x3c958a37	0.018254383
90	0xbb2cb104	-0.0026350627
91	0xbcbd276d	-0.023090089
92	0xbc1e237b	-0.009652014
93	0x3bab8d96	0.005235384
94	0xbcc0cf8b	-0.023536464
95	0xbbd77116	-0.00657476
96	0x3b8f70f1	0.0043774773
97	0xbd317132	-0.043320842
98	0xbc8dc1f4	-0.017304398
99	0xbc0766d5	-0.008264263
100	0x3aebd154	0.0017991462
101	0xbc9d4733	-0.01919899
102	0xba95ba35	-0.0011423292
103	0xbc96bdc8	-0.018401042
104	0x3c0ee719	0.00872209
105	0xbc8be537	-0.017077072
106	0x39721e07	0.00023090105
107	0x3c8d57db	0.017253807
108	0xbc697308	-0.014248617
109	0xbca5ed34	-0.020254709
110	0xbbefd1ed	-0.0073187263
111	0x3ca1d927	0.019756867
112	0xbc4cac90	-0.012492314
113	0x3c6a5ac3	0.014303866
114	0xbba4453b	-0.0050131357
115	0x3b62f9dc	0.003463379
116	0x3b2c2f38	0.0026273262
117	0xbbe54645	-0.006996902
118	0xbc53a9da	-0.012918914
119	0xb9913eba	-0.0002770329
120	0xbaff141b	-0.0019460948
121	0xbd0c11ef	-0.03419679
122	0xbaebb96e	-0.001798434
123	0xbc19caa6	-0.009386694
124	0xbac1ed72	-0.0014795496
125	0x3c7f71e7	0.015591121
126	0x3c4c40b2	0.012466596
127	0xbc8991fa	-0.01679324
128	0xbcf1c2a7	-0.029511763
129	0x3c698f95	0.014255424
130	0xbc6d47f3	-0.014482486
131	0xbbc23553	-0.005926767
132	0xbc4c288c	-0.012460839
133	0x3b7b61d9	0.0038357882
134	0xbd242624	-0.040075436
135	0xbbaaaea6	-0.005208808
136	0x3be7f783	0.0070790662
137	0x3be32478	0.0069318376
138	0xbc9fbffd	-0.019500727
139	0x3cc79697	0.024363799
140	0xbc8f0353	-0.01745764
141	0xbc1e3093	-0.009655136
142	0xb99e8917	-0.00030238248
143	0x3c3a7f84	0.011382941
144	0xbc30fb1e	-0.0108020585
145	0xbc0b1088	-0.008487828
146	0xbbbf95f0	-0.0058467314
147	0xbc43d4fc	-0.011952635
148	0x39e46b26	0.0004356738
149	0xbc0d1105	-0.008610015
150	0xbbaacbe5	-0.0052122944
151	0x3ca6cab3	0.020360326
152	0xbce15e6b	-0.027510842
153	0xbc022115	-0.007942458
154	0xbb091fae	-0.0020923424
155	0x3ce16b2f	0.02751693
156	0xbc0e22f1	-0.008675323
157	0x3c9cebd2	0.019155417
158	0x3bafa290	0.005359955
159	0xbc61060c	-0.013734352
160	0xbc17b236	-0.009258797
161	0xbb515015	-0.0031938602
162	0xbbd92928	-0.0066272207
163	0xbd06f0fa	-0.032944657
164	0x3bd2d485	0.0064340257
165	0x3bf45851	0.007456817
166	0xbc6cf45d	-0.014462558
167	0xbc373a90	-0.011183396
168	0xbc77efc4	-0.015132848
169	0xbcc0038a	-0.023439188
170	0xbd316caa	-0.04331652
171	0x3c9957d3	0.018718636
172	0x3cb62392	0.022233758
173	0xbc235640	-0.009969294
174	0xbbbc0f73	-0.0057391464
175	0xbb41fec4	-0.0029601315
176	0xbaa881e3	-0.0012856092
177	0x3ac49e5b	0.0015000807
178	0xbd00167c	-0.031271443
179	0x3ca80f3e	0.02051508
180	0xbbedcda0	-0.0072571784
181	0xba6f5b58	-0.0009130738
182	0xbccc3ec4	-0.024932273
183	0xbb36a98d	-0.0027872056
184	0xbca8a625	-0.020587036
185	0xbc2d81c7	-0.010590023
186	0xbabce2c4	-0.0014410843
187	0xba769d04	-0.00094075524
188	0xbc7df79d	-0.01550093
189	0x3b11f512	0.0022271317
190	0xbc605444	-0.0136919655
191	0x3a8e0e74	0.0010838048
192	0xbcb216b2	-0.021739338
193	0xbc603844	-0.01368529
194	0x3bd269a3	0.0064212843
195	0x3a77d396	0.0009453831
196	0x3c7a2426	0.0152674075
197	0xbc1fb346	-0.009747332
198	0xbc69fa31	-0.014280842
199	0x3c83dae2	0.016095582
200	0x3c0f964b	0.00876386
201	0x3b737565	0.003714883
202	0xbc5856f5	-0.013204326
203	0xbc0ed46d	-0.008717638
204	0xbcf14891	-0.029453548
205	0xbcd209d0	-0.025639445
206	0xbc2a0649	-0.010377475
207	0x3a5d8549	0.0008450342
208	0x3be064be	0.006847947
209	0xbb434b5d	-0.0029799559
210	0x3b125932	0.0022330997
211	0xbaaa088d	-0.0012972519
212	0xbb2cc91a	-0.0026364983
213	0xbbb92c94	-0.005651066
214	0x3cb882df	0.022523342
215	0x3b852500	0.0040632486
216	0xbd3dce53	-0.046339344
217	0xbc1fa2ee	-0.009743435
218	0x3cbe4b3c	0.023229234
219	0x3c094f22	0.008380683
220	0xbcca7e82	-0.024718527
221	0x3b8fbbce	0.0043864017
222	0xbc85b30b	-0.016320726
223	0x3c1e903d	0.009677944
224	0xbbd28c30	-0.006425403
225	0xbcab4130	-0.020905107
226	0x3c7122c9	0.014717766
227	0xbcaa591d	-0.020794446
228	0x3c1521a1	0.009102256
229	0xbc6f50fa	-0.014606709
230	0x3c44ef9c	0.012020018
231	0xb9bbc133	-0.00035811364
232	0xbb756b14	-0.0037447857
233	0xbb99c8be	-0.00469312
234	0x3cdc5c7d	0.02689957
235	0x3c69036f	0.01422201
236	0x3c8717aa	0.016490776
237	0x3af1d427	0.0018450067
238	0xbc980745	-0.018558154
239	0x3bf6bd58	0.0075298958
240	0xbbdb5329	-0.006693263
241	0x3cbf79de	0.02337354
242	0xbc1f7e6f	-0.009734734
243	0x3c86453f	0.016390441
244	0xbc89a3de	-0.01680177
245	0xbc37d772	-0.0112208
246	0xbcdf87a3	-0.027286356
247	0xbbccf8d7	-0.00625525
248	0x3c46ee69	0.012141802
249	0xbca3a4c1	-0.019976022
250	0xbc2c3fd3	-0.010513264
251	0xbc951379	-0.018197762
252	0x3a084f52	0.0005199808
253	0xbbf667bb	-0.00751969
254	0x3c5c5869	0.013448813
255	0xbc4e022f	-0.012573763

fc.bias f4 [4]
0	0x40a94527	5.2896914
1	0xc09018c3	-4.5030227
2	0xc0ab7c13	-5.358896
3	0xc0a10cf1	-5.0328298

exp_avg f4 [4, 512]
0	0xbc9616ae	-0.018321361
1	0xbc95b7e9	-0.018276172
2	0xbc23311f	-0.009960442
3	0xbc1ffe6c	-0.009765249
4	0xbc5f0e1f	-0.013614207
5	0xbb8a6507	-0.004223469
6	0xbc4545ea	-0.012040595
7	0xbc313904	-0.010816816
8	0xbc06002c	-0.008178752
9	0xbc2adf03	-0.010429147
10	0xbbded860	-0.0068006963
11	0xbc1cfd83	-0.009581926
12	0xbb9c56b3	-0.0047710775
13	0xbb88854e	-0.004166282
14	0xbc59acec	-0.013285857
15	0xbbb18ca3	-0.0054183765
16	0xbbf35a7e	-0.007426559
17	0xbbd04d24	-0.006356852
18	0xbbb3f2db	-0.005491597
19	0xbbd8fd26	-0.0066219745
20	0xbb92551a	-0.0044657113
21	0xbbee9a89	-0.0072816056
22	0xb9e6edff	-0.0004404634
23	0xbbf5abfd	-0.0074973092
24	0xbc552d2e	-0.01301126
25	0xbbd265b5	-0.006420816
26	0x395f77a3	0.00021311505
27	0xbc1673f9	-0.0091829235
28	0xbc1cbe53	-0.009566861
29	0xbb2c2030	-0.0026264302
30	0xbb847fe2	-0.004043565
31	0xbc39cba1	-0.011340053
32	0xbb98c2b6	-0.004661883
33	0xbbb4fdb8	-0.0055234097
34	0xbc15e9f9	-0.009150022
35	0xb9f40d61	-0.00046549275
36	0xbbaed883	-0.005335869
37	0x3acf214a	0.0015802768
38	0xbc6681df	-0.01406905
39	0xbb1dd149	-0.0024081043
40	0xbadb5eba	-0.0016736605
41	0xbbafd3f3	-0.0053658425
42	0xbb3bb322	-0.0028640707
43	0xbba58534	-0.0050512794
44	0xbb04cf02	-0.0020264988
45	0xbb674af0	-0.003529247
46	0xbb7b364f	-0.003833193
47	0xbb68d69a	-0.0035528303
48	0xbb8b0ef7	-0.0042437273
49	0xbbc6fea3	-0.0060728355
50	0xbbf7460b	-0.0075461916
51	0xbb80fbf3	-0.0039362847
52	0xbbc7e492	-0.0061002458
53	0xbb394024	-0.002826699
54	0xbb7a6deb	-0.003821249
55	0xbc09d715	-0.008413096
56	0xbb4d1daf	-0.003129821
57	0xbb429f63	-0.0029697053
58	0xbb3dcc4e	-0.0028960886
59	0xbb8694bb	-0.0041070855
60	0xbbb5d87d	-0.005549489
61	0xbb39c505	-0.0028346193
62	0xbb8e417b	-0.004341302
63	0xbb0b2bd5	-0.0021235843
64	0xbb66a11a	-0.003519124
65	0xbb381a22	-0.0028091748
66	0xbbc53782	-0.00601858
67	0xbb9f72ac	-0.004865965
68	0xbb38e256	-0.0028211079
69	0xbb9a540c	-0.004709726
70	0xbbe3db97	-0.0069536674
71	0xbb7c2201	-0.0038472416
72	0xbbd4a6ef	-0.0064896266
73	0xbb9d0189	-0.004791443
74	0xbb85e581	-0.004086197
75	0xba2d8bb8	-0.0006620246
76	0xbb4293bd	-0.002969011
77	0xbbbd1656	-0.005770485
78	0xbbfcbfee	-0.0077133095
79	0xb94135ab	-0.00018425907
80	0xba6f4972	-0.00091280707
81	0xbb38e9cd	-0.0028215528
82	0xbb45943c	-0.003014817
83	0xbb8577ff	-0.0040731425
84	0xbb9d949d	-0.004808976
85	0xbb90ed9e	-0.0044228574
86	0xbba4c02d	-0.005027792
87	0xbb997611	-0.004683264
88	0xbb4a1fcc	-0.0030841706
89	0xbb5d6514	-0.003378217
90	0xbac501b8	-0.001503042
91	0xbb32e342	-0.00272961
92	0xbb936d75	-0.0044991323
93	0xbba207aa	-0.0049447613
94	0xbaf83be9	-0.0018938753
95	0xbbaf823b	-0.005356101
96	0xbb820ed9	-0.003969055
97	0xbb867e96	-0.0041044457
98	0xbb6d2167	-0.003618324
99	0xbbedcc70	-0.007257037
100	0xbb4f973c	-0.0031675836
101	0xba90cdfc	-0.0011047716
102	0xbb7c318a	-0.0038481676
103	0xbb96dc60	-0.0046039075
104	0xbb910ad5	-0.00442634
105	0xbabbec10	-0.001433732
106	0xbba7c4bd	-0.0051198886
107	0xbaedd851	-0.0018146132
108	0xba937a18	-0.0011251597
109	0xba06f8fb	-0.00051487953
110	0xbb25abad	-0.0025279329
111	0xbb8e808c	-0.00434882
112	0xbb882a6c	-0.0041554477
113	0xbb2ae819	-0.0026078282
114	0xba725f13	-0.00092457345
115	0xb9a07765	-0.00030606534
116	0xbbb70ba8	-0.0055861063
117	0xb8a7a4d3	-7.9938814e-05
118	0xbaec36e5	-0.0018021731
119	0xbb32992a	-0.0027251937
120	0xbb4e7472	-0.0031502512
121	0xb91d731e	-0.00015015571
122	0xbb8bd964	-0.0042678583
123	0xbb52721e	-0.0032111476
124	0xbab02b80	-0.0013440698
125	0xbac40248	-0.0014954293
126	0xbb729ec9	-0.0037020913
127	0xbb9c51ef	-0.0047705094
128	0xba1e0d4e	-0.0006029204
129	0xbb042728	-0.002016494
130	0xbafe6bfa	-0.0019410842
131	0xbb412398	-0.0029470678
132	0xbb968613	-0.0045936196
133	0x396ffbdd	0.00022886643
134	0xba8b38c8	-0.001062178
135	0xb999ec33	-0.00029358416
136	0xba48e48c	-0.00076634507
137	0xbae34fe8	-0.001734254
138	0xbb31bfc7	-0.0027122365
139	0xbabca2a8	-0.0014391737
140	0xba1578bf	-0.00057018915
141	0xba8f2963	-0.0010922368
142	0xbb0f5fb4	-0.0021877112
143	0xbb3022e4	-0.0026876265
144	0xbae75901	-0.0017650427
145	0xbaf3d58b	-0.001860307
146	0x38f0e398	0.000114864844
147	0xbb6c21f2	-0.0036030975
148	0xbb63ab10	-0.0034739412
149	0xba8aa8b9	-0.0010578848
150	0xba9754ba	-0.0011545636
151	0xbae46972	-0.0017426445
152	0xbb810218	-0.003937017
153	0xbaa1853a	-0.001232303
154	0xbb49f7b2	-0.0030817804
155	0xbb33c7de	-0.0027432363
156	0xbb08925c	-0.002083919
157	0xba1eb7c1	-0.0006054603
158	0xb9f4af2c	-0.0004666982
159	0xbb226bbf	-0.002478346
160	0xbb2f8c6a	-0.0026786574
161	0xbaddf085	-0.0016932642
162	0xbb6b517e	-0.0035906727
163	0xbae5bb62	-0.0017527158
164	0xb939601c	-0.00017678778
165	0xbada80d8	-0.0016670479
166	0xbb349ca2	-0.002755918
167	0xbb5126ef	-0.0031914075
168	0xba660f4b	-0.00087760825
169	0xbab911f4	-0.001411973
170	0xbb50e78b	-0.0031876292
171	0xbb2b2f56	-0.0026120744
172	0xbac98d03	-0.0015377108
173	0xbb3a8f04	-0.0028466592
174	0xbb3788e0	-0.0028005168
175	0xbb50aece	-0.0031842473
176	0xbb4ce4de	-0.0031264345
177	0xbb2eb483	-0.0026657886
178	0xbab17274	-0.0013538138
179	0xbad20f4a	-0.0016026285
180	0xbb8c7480	-0.004286349
181	0xbb5af55b	-0.0033410403
182	0xbabcba63	-0.0014398809
183	0xbb3ba21c	-0.002863056
184	0xbaf5ab1b	-0.001874301
185	0xba7f38c9	-0.00097359397
186	0xba822b39	-0.0009931094
187	0xbb1f9534	-0.0024350407
188	0xbacd830f	-0.0015679317
189	0xbada9614	-0.0016676807
190	0xbadf719d	-0.0017047409
191	0xbb216dab	-0.0024632018
192	0xbb9db57d	-0.004812895
193	0x3805a09f	3.185926e-05
194	0xbb7c56de	-0.0038503925
195	0xbb1c310e	-0.002383295
196	0xbb0e8fa0	-0.0021753088
197	0xbab2d7ba	-0.0013644614
198	0xbaafebca	-0.0013421711
199	0xba94a8dd	-0.0011341829
200	0xbae3a7a8	-0.0017368691
201	0xbb8146cd	-0.0039452077
202	0xba71d024	-0.0009224436
203	0xbabf5af8	-0.0014599254
204	0xbaf954de	-0.0019022485
205	0xba93e6f2	-0.0011284037
206	0xbab69e30	-0.0013932642
207	0xb9fe1af3	-0.00048466734
208	0xbae6ab8e	-0.0017598735
209	0xb950b4c9	-0.00019903774
210	0xbaaf1fc5	-0.0013360908
211	0xbb185a82	-0.0023247306
212	0xba07fd70	-0.00051876064
213	0xbafb8658	-0.0019189818
214	0xbab1239b	-0.001351464
215	0xba995bd2	-0.0011700338
216	0xbaa31c8a	-0.0012444418
217	0xbb6129a4	-0.0034357095
218	0xbae751e4	-0.0017648307
219	0x3a0e6041	0.0005431213
220	0xbb0fbf16	-0.0021933964
221	0xba9734db	-0.0011536138
222	0xbb27842c	-0.0025560958
223	0xbad1b47c	-0.0015999223
224	0xbb08b5ad	-0.002086024
225	0xbb10599a	-0.0022026063
226	0xbb1d33db	-0.0023987207
227	0x394e0b06	0.00019649797
228	0xbb098442	-0.0020983373
229	0xbaaf228b	-0.0013361735
230	0xba597ebd	-0.00082967785
231	0xbaccf43e	-0.0015636755
232	0xbae63298	-0.0017562686
233	0xbb6703e7	-0.0035250129
234	0xba10b5f9	-0.000552028
235	0xba457653	-0.00075325853
236	0xba9c15bc	-0.0011908333
237	0xbb390b10	-0.0028235354
238	0xbb17e414	-0.0023176717
239	0xbb1a6c5d	-0.0023563125
240	0xba3e1282	-0.00072506827
241	0xbaddc8e2	-0.001692083
242	0xbb293d10	-0.002582375
243	0x3a890c78	0.0010455986
244	0xbaed43f1	-0.0018101913
245	0xbaf50ae8	-0.0018695267
246	0xbaa01366	-0.0012212812
247	0xba66374f	-0.00087820453
248	0xbaca4d81	-0.0015434475
249	0xbb2d8cc2	-0.0026481603
250	0xbb1dfbc7	-0.002410637
251	0x39a734e6	0.00031892135
252	0x39053799	0.0001270458
253	0xbb29babc	-0.0025898656
254	0xbae5c5c8	-0.0017530257
255	0xbae42f64	-0.0017409143

exp_avg_sq f4 [4, 512]
0	0x3b79c940	0.003811434
1	0x3b466ffa	0.0030279146
2	0x3b0a92b3	0.0021144568
3	0x3b168ab9	0.0022970869
4	0x3a8e74f8	0.00108686
5	0x3aa7d3a5	0.0012804164
6	0x3a95126d	0.0011373289
7	0x3a5e69d5	0.0008484398
8	0x3a90996d	0.0011032053
9	0x3a61ce8a	0.00086138456
10	0x3a37597f	0.0006994232
11	0x3a25bf89	0.00063227915
12	0x3a305c16	0.0006727589
13	0x3a2f983f	0.00066984067
14	0x3a3fa88c	0.0007311187
15	0x3a16d207	0.00057533424
16	0x3a105be3	0.0005506856
17	0x3a0dce3f	0.0005409456
18	0x3a05dbb0	0.00051062834
19	0x3a059ace	0.0005096615
20	0x39e05671	0.00042789013
21	0x3a1469d2	0.00056615204
22	0x39b4e2b0	0.0003450117
23	0x39c7c233	0.00038100927
24	0x39b4049f	0.00034335718
25	0x39a3d4ba	0.00031248276
26	0x39c1e460	0.0003698198
27	0x39afc59c	0.00033525832
28	0x39b45f87	0.0003440345
29	0x39a957bc	0.0003229956
30	0x39a9117e	0.00032247225
31	0x39e02894	0.00042754842
32	0x399f7763	0.00030415793
33	0x39a67ca8	0.00031754863
34	0x39ba9d9c	0.00035594113
35	0x398873f1	0.00026026324
36	0x39808f16	0.0002452067
37	0x396a6b69	0.00022355992
38	0x397fa829	0.0002438134
39	0x398f5a20	0.00027342234
40	0x399ef76a	0.00030320446
41	0x3980809c	0.00024509884
42	0x3959574a	0.0002072725
43	0x3996eedc	0.00028788194
44	0x398f7100	0.00027359277
45	0x3983c724	0.00025134638
46	0x3963ae9a	0.00021713451
47	0x39732afa	0.00023190296
48	0x396c7297	0.00022549402
49	0x396aa22a	0.0002237639
50	0x396aba4b	0.00022385379
51	0x397027eb	0.00022903054
52	0x39518bf1	0.00019983925
53	0x393cdada	0.00018010606
54	0x396fae06	0.00022857645
55	0x395e0dff	0.00021176784
56	0x392f6190	0.00016725645
57	0x395d0fb5	0.00021082054
58	0x394b6175	0.00019395894
59	0x392461bb	0.00015676666
60	0x3933bd49	0.00017141284
61	0x3953e0f4	0.0002020633
62	0x3925d4cf	0.00015814904
63	0x39161ca9	0.00014315791
64	0x39363979	0.00017378283
65	0x3941ba7c	0.00018475385
66	0x391131e3	0.00013846862
67	0x39190ff5	0.00014597161
68	0x3906ff03	0.00012874235
69	0x3939a924	0.00017705985
70	0x39337577	0.0001711453
71	0x390b6348	0.00013293058
72	0x390be4b2	0.00013341269
73	0x3903a605	0.0001255498
74	0x39083a96	0.00012991796
75	0x391f3524	0.00015183218
76	0x39018746	0.00012352792
77	0x392d8be8	0.00016550685
78	0x392b4183	0.00016332236
79	0x390617d7	0.00012788117
80	0x391e8568	0.00015117752
81	0x3912f969	0.00014016558
82	0x3910df41	0.00013816079
83	0x3905829b	0.00012732523
84	0x390e7ac8	0.00013587915
85	0x38f6dd7e	0.0001177145
86	0x38d84715	0.00010312923
87	0x38ff969a	0.00012187399
88	0x38f367d9	0.00011606486
89	0x38c6d3fe	9.480862e-05
90	0x38d75955	0.00010268638
91	0x390cb503	0.00013418873
92	0x38e1aab2	0.000107606305
93	0x38ccaf4c	9.7601296e-05
94	0x38df816c	0.00010657575
95	0x38d767f7	0.00010271364
96	0x38e8bb79	0.000110975416
97	0x38e67d83	0.00010990633
98	0x38e5bb7e	0.00010954494
99	0x38e5bc0d	0.00010954598
100	0x38cc154d	9.7314456e-05
101	0x38c5d251	9.4328665e-05
102	0x38c142d5	9.2154056e-05
103	0x38c4f824	9.392228e-05
104	0x38afd0e8	8.383562e-05
105	0x38e3de6c	0.00010865633
106	0x38d31924	0.00010065947
107	0x38a5cfd5	7.906525e-05
108	0x38de159d	0.00010589811
109	0x38bcf7a4	9.010665e-05
110	0x38c292be	9.277974e-05
111	0x38ad2d3e	8.25771e-05
112	0x38acbbe9	8.2366e-05
113	0x389b8425	7.41559e-05
114	0x38b1902b	8.466871e-05
115	0x389d20c1	7.492444e-05
116	0x38cdceef	9.813706e-05
117	0x3898d508	7.287605e-05
118	0x38a780a2	7.98714e-05
119	0x389adaac	7.384023e-05
120	0x38a39a03	7.8011326e-05
121	0x38a94c3b	8.072747e-05
122	0x38a799ce	7.991829e-05
123	0x3895a2e0	7.1352115e-05
124	0x38acb717	8.235702e-05
125	0x3888f6b7	6.5309396e-05
126	0x38a595f2	7.8957426e-05
127	0x38ad18b1	8.253882e-05
128	0x38aacd3f	8.144462e-05
129	0x388d1bb2	6.7285626e-05
130	0x389ba732	7.4221185e-05
131	0x3896f453	7.198066e-05
132	0x3894a2a5	7.087485e-05
133	0x3896900e	7.17939e-05
134	0x38a7327f	7.972586e-05
135	0x388392f5	6.27394e-05
136	0x388cf4db	6.721328e-05
137	0x3885ba93	6.376686e-05
138	0x38988cf8	7.274182e-05
139	0x387722b1	5.8921698e-05
140	0x38896a23	6.5524386e-05
141	0x387f352f	6.084627e-05
142	0x388cd55e	6.715463e-05
143	0x3881b93f	6.185704e-05
144	0x386dea60	5.6723482e-05
145	0x3882a3d3	6.229398e-05
146	0x3891bccc	6.949305e-05
147	0x38893071	6.541692e-05
148	0x388a8b2f	6.606278e-05
149	0x38819199	6.178319e-05
150	0x3867804f	5.519419e-05
151	0x385cc5a7	5.2636165e-05
152	0x38789dfa	5.9274935e-05
153	0x38782780	5.9164595e-05
154	0x386b73a6	5.6136072e-05
155	0x385ddf39	5.28984e-05
156	0x38748cdc	5.830532e-05
157	0x38632f38	5.4164993e-05
158	0x38667857	5.494835e-05
159	0x38757d9d	5.852954e-05
160	0x3871df98	5.7667115e-05
161	0x385dc837	5.287697e-05
162	0x386571ce	5.4703843e-05
163	0x3861a4b5	5.3797576e-05
164	0x38649907	5.4501954e-05
165	0x3860335a	5.3453587e-05
166	0x3864abb1	5.4519336e-05
167	0x385b36e7	5.22648e-05
168	0x3872176d	5.7719113e-05
169	0x385396bd	5.0446706e-05
170	0x386e35e7	5.6793822e-05
171	0x3845b388	4.713566e-05
172	0x3848fc8b	4.7918915e-05
173	0x386640be	5.489657e-05
174	0x38535eda	5.0394658e-05
175	0x3843530c	4.6568966e-05
176	0x3842db89	4.6457662e-05
177	0x3841398a	4.6068373e-05
178	0x38592523	5.1771418e-05
179	0x383d9f99	4.520975e-05
180	0x38473703	4.749653e-05
181	0x3834fb98	4.314966e-05
182	0x384711ed	4.7461992e-05
183	0x383d0046	4.5061366e-05
184	0x38418322	4.6136913e-05
185	0x383b5233	4.466083e-05
186	0x383aca75	4.453441e-05
187	0x3846a3e4	4.7359514e-05
188	0x38419ac8	4.6158937e-05
189	0x383b5355	4.4661883e-05
190	0x382f4610	4.1788502e-05
191	0x383a9262	4.4482185e-05
192	0x383d8354	4.518342e-05
193	0x383de99c	4.5278677e-05
194	0x382e63d1	4.1577794e-05
195	0x38202d36	3.818908e-05
196	0x382e0a83	4.1494623e-05
197	0x3841b70a	4.6185254e-05
198	0x3828bf55	4.0232513e-05
199	0x38373205	4.3677184e-05
200	0x38393ff0	4.4166984e-05
201	0x3827b5be	3.9985163e-05
202	0x383a25cb	4.4381053e-05
203	0x3828cdcf	4.0245995e-05
204	0x382b745e	4.0877952e-05
205	0x3831ceb5	4.23926e-05
206	0x3821386d	3.8437942e-05
207	0x3833dc1a	4.288191e-05
208	0x38225666	3.8704275e-05
209	0x38359fae	4.3302476e-05
210	0x382a4ad9	4.0600866e-05
211	0x3822604c	3.8713493e-05
212	0x381f5faa	3.7997648e-05
213	0x3827b86b	3.9987655e-05
214	0x3819aec2	3.66408e-05
215	0x381ac128	3.6896352e-05
216	0x382deea9	4.1468684e-05
217	0x381f4764	3.797504e-05
218	0x380b076d	3.31471e-05
219	0x381807a1	3.624673e-05
220	0x38178f63	3.6134745e-05
221	0x381acc30	3.6906626e-05
222	0x38284b6b	4.012456e-05
223	0x3817031c	3.60041e-05
224	0x38139fca	3.5196346e-05
225	0x3809b969	3.2836022e-05
226	0x380d7fa5	3.3735898e-05
227	0x381e034a	3.76732e-05
228	0x380bbfe6	3.3318902e-05
229	0x381593d4	3.5662044e-05
230	0x3812ef63	3.503206e-05
231	0x380db9a5	3.3789915e-05
232	0x380f0e26	3.4107034e-05
233	0x38125173	3.4884968e-05
234	0x37fd922e	3.022802e-05
235	0x3809196e	3.268703e-05
236	0x380be526	3.3353594e-05
237	0x3808ad88	3.258654e-05
238	0x38158c2d	3.5654917e-05
239	0x380a6e72	3.3004624e-05
240	0x380fbf7b	3.4272187e-05
241	0x37f95b2d	2.972557e-05
242	0x3804ed11	3.1692038e-05
243	0x37ff7178	3.0451207e-05
244	0x3809a7f4	3.2819764e-05
245	0x380649cf	3.201683e-05
246	0x3807b76f	3.2357344e-05
247	0x380439e5	3.152517e-05
248	0x3800d5eb	3.0716805e-05
249	0x380b0e90	3.3153745e-05
250	0x37f69670	2.9395538e-05
251	0x3805730c	3.1816817e-05
252	0x3802d268	3.119037e-05
253	0x380571a1	3.1815496e-05
254	0x37f1bfbe	2.8818726e-05
255	0x380157e5	3.0837855e-05

exp_avg f4 [4]
0	0xbaea880e	-0.0017893331
1	0x3a6762f3	0.0008826695
2	0x3a040654	0.00050363434
3	0x39c91377	0.0003835221

exp_avg_sq f4 [4]
0	0x37439e51	1.1659767e-05
1	0x3686fe2f	4.023102e-06
2	0x36a281fe	4.8431093e-06
3	0x3643f5f0	2.9200419e-06
