Task1-ActionSpotting/Pooling/models/MAXPOOL_v2/model.pth.tar (torch, 113445 bytes, 6 tensors)

fc.weight f4 [18, 512]
000000 5c 93 19 bc 3b 47 ce ba ba cf 05 bc 21 99 c2 3a
       -0.009373512 -0.0015737781 -0.008167202 0.0014846661
000010 18 6d 2b 3c 64 83 11 3b 1c 31 30 3c 08 08 23 38
       0.010463022 0.002220356 0.010753896 3.8869708e-05
000020 f8 70 32 bc fb 4b 15 3b 91 53 78 39 62 c6 87 3b
       -0.010891192 0.0022780884 0.00023682254 0.004143522
000030 3d 0f 07 3c 5b 89 51 3b b7 44 1f 3b 70 c1 70 3b
       0.008243379 0.003197274 0.0024302432 0.0036736391
000040 82 72 53 3a 13 73 01 bc 6b 07 93 b9 e7 3a c6 ba
       0.0008066074 -0.007900971 -0.00028043552 -0.0015123755
000050 0a f0 bf 3b 8b 56 d1 3a e4 1d d7 3b 9e d8 5f b9
       0.0058574723 0.0015971226 0.0065648425 -0.00021347633
000060 92 91 e5 3b 15 bf 6d b8 c6 f6 a9 bb 0e d1 aa bb
       0.0070058787 -5.6683162e-05 -0.0051868884 -0.0052129095
000070 29 6b 61 bb a1 d7 b1 bb 26 04 dd 3b 2d a6 c7 bb
       -0.0034396148 -0.0054273163 0.0067448793 -0.0060928077
000080 42 ea c2 bb ab 2e 44 bc a4 e1 39 bc f9 6e 34 3b
       -0.005948336 -0.011974017 -0.011345301 0.0027531965
000090 79 bb 14 3c 47 bf c4 3a 43 0e 16 bc 0e 37 cb bb
       0.0090779 0.0015010618 -0.009158674 -0.0062016314
0000a0 9f 83 99 bc 0f 72 49 3c 3f b0 82 3c b4 76 1e bc
       -0.01873952 0.01229526 0.015953181 -0.009671856
0000b0 4d 5a 69 bc 0d e8 17 bb e1 c1 d3 bb ca d6 27 bb
       -0.014242721 -0.0023179085 -0.006462321 -0.0025610202
0000c0 e4 37 22 3b 05 34 84 ba b0 b4 9d bb a3 0a 57 bc
       0.0024752552 -0.0010086304 -0.0048127994 -0.013125095
0000d0 e4 01 f4 3b e8 0b ed bb 81 e9 44 39 25 5d 90 3a
       0.0074465144 -0.0072340854 0.00018779004 0.0011014087
0000e0 68 9b 13 bb 91 bf 0e 3b 61 6b f8 3b 11 74 d3 ba
       -0.002252305 0.0021781663 0.00758116 -0.0016132613
0000f0 b9 c3 af bb c9 8b 98 bc e6 11 86 3b 14 30 34 3b
       -0.005363908 -0.018621342 0.004091489 0.0027494477
000100 f9 de 9f bb fc a1 96 3b e5 63 2a 3b 1d 55 ea bb
       -0.0048788753 0.0045969468 0.0025999483 -0.0071512596
000110 cb 58 15 bc 2c 83 38 3b 04 40 34 bc 24 37 f2 ba
       -0.009115408 0.0028154356 -0.011001591 -0.0018479568
000120 6c 2d b7 bb ad 31 e3 ba 7c dd 89 3b 2f ab 5d 3a
       -0.0055901315 -0.001733353 0.004207311 0.00084559893
000130 fe 6f e4 ba 5a 74 67 3b 39 8b dd bb 7a 16 5d bc
       -0.0017428396 0.0035317154 -0.0067609814 -0.013494128
000140 7e ea 22 bc e9 a4 57 bc cd 5c 6f 3b c2 64 af 3b
       -0.009943603 -0.013161876 0.003652382 0.0053525874
000150 bd e6 82 bc 32 c6 cf bb bc 00 9c 3c 54 ea 97 39
       -0.015979165 -0.0063407654 0.019043319 0.00028975552
000160 e2 bf e2 bb 3f b2 d2 3a 1d 27 31 bc b9 31 da bc
       -0.006919847 0.001607485 -0.010812548 -0.026635038
000170 94 3d 59 bc 76 ce a1 3b da dd 82 bc f4 62 67 bb
       -0.01325931 0.004937942 -0.015974928 -0.0035306783
000180 94 2a 18 39 d8 3a 94 bc 91 90 cc b9 3f cc 4f 3a
       0.00014511711 -0.018094465 -0.00039017622 0.00079268584
000190 21 94 1b ba 8e 65 4d bc 7f 93 ae bb c8 0c 88 3b
       -0.00059348537 -0.01253642 -0.0053276415 0.0041519143
0001a0 ef 63 af bb b4 bb b0 ba c2 75 84 bc e4 b2 83 3b
       -0.005352489 -0.0013483674 -0.016169433 0.004019128
0001b0 82 51 a1 bc 23 45 b9 bc 1b b7 7f bc 2e 94 ce 3b
       -0.019692186 -0.022615975 -0.015607621 0.0063042855
0001c0 4d 60 5b bc 91 6e 9c ba 39 a0 f9 ba 99 ed b4 bb
       -0.013389659 -0.0011934807 -0.0019044942 -0.005521488
0001d0 f7 1b 27 bc 36 5c 23 bb 6c cc 3d bc 22 ec 19 3b
       -0.010199538 -0.0024926788 -0.0115843825 0.0023486693
0001e0 f6 41 2d bc 09 6e 14 3c 19 35 8f 3b b8 ec e1 ba
       -0.010574808 0.009059438 0.0043703434 -0.0017236685
0001f0 d6 19 94 bc 1e 55 67 bc ce 8a 30 bc 0c aa 8b bc
       -0.018078726 -0.014119415 -0.010775281 -0.017048858
000200 53 e5 4a bc 7d 5f 52 bc 63 ca 2e 3b 77 98 c9 3a
       -0.012383777 -0.012840149 0.0026670925 0.0015380521
000210 86 37 92 3b 81 73 44 38 e5 0e fd bc db 80 29 3b
       0.0044621853 4.6837613e-05 -0.030890891 0.0025864157
000220 7f c3 a2 3b b4 2e 61 ba ac ba 10 bb fa 5e 25 3c
       0.0049671526 -0.0008590028 -0.0022083921 0.010093445
000230 04 1b 7a bc a8 ee 01 bc 3e 23 08 bc 15 9b 83 bb
       -0.01526523 -0.007930435 -0.008309184 -0.00401629
000240 bf d3 ad bb 96 d5 7c bc bb 8d 88 39 ac 1e 50 bb
       -0.005304783 -0.015431782 0.0002604554 -0.0031756563
000250 ed fd f8 b9 6b 70 d9 ba 39 9d 1b bb 3e dd 00 3c
       -0.00047491436 -0.0016589289 -0.0023744835 0.007865248
000260 ec 85 de bb 2f 5f f6 bb dd 90 70 bc e1 e0 a1 3b
       -0.006790867 -0.007518671 -0.014682976 0.0049401377
000270 56 04 39 ba 15 64 af 3b 75 cd b6 bb c7 85 9e bc
       -0.0007057836 0.005352507 -0.0055786916 -0.0193509
000280 ff 48 4c bb 62 d9 a7 3b f6 0e 48 bc 3d a1 b4 bb
       -0.0031171439 0.0051223496 -0.012210598 -0.005512385
000290 76 78 a4 ba 59 88 e2 bb 05 78 29 bb 08 58 29 3a
       -0.0012548107 -0.0069132266 -0.002585889 0.0006459956
0002a0 53 4d 0c 3c 39 14 f8 3a 7a 8f a2 bb 2f f2 87 ba
       0.008563357 0.0018926925 -0.0049609514 -0.0010371859
0002b0 e4 e1 0b bc 42 69 87 bc 63 0e ab ba 0a 25 84 3c
       -0.008537743 -0.016529683 -0.0013050552 0.016130943
0002c0 6f 9c 1f bc bd a9 e5 3b e2 c1 97 bc e9 bf d4 3b
       -0.0097418865 0.00700876 -0.018525068 0.006492604
0002d0 d5 1d 85 bb 46 b2 41 3b b6 da 90 ba 57 6d 89 bc
       -0.004062394 0.0029555722 -0.0011051509 -0.01677577
0002e0 4a 82 c8 ba d7 03 49 bb ed 7a a1 3b d6 e9 a0 bb
       -0.0015297618 -0.0030672455 0.004927984 -0.004910688
0002f0 46 dd 8a bc 8d 8f 8c bb 5b c1 22 3b 82 81 c7 3a
       -0.016951215 -0.0042895735 0.0024834487 0.0015221091
000300 b6 d4 3b bc b6 de 77 3b f2 9a fb 3b 54 3d 2b bc
       -0.011464288 0.0037821955 0.007678383 -0.0104516335
000310 df de 96 bc a4 73 1f bc e1 f2 85 3b e0 b2 3b 3a
       -0.01841682 -0.009732161 0.0040877913 0.00071601383
000320 9c 54 84 bc 7b 6f ee bb cb e4 86 bc 92 e3 8d bc
       -0.016153626 -0.007276473 -0.016466519 -0.017320428
000330 9b 2b 64 bc 5f 18 17 bc 0c 09 1d bc 2d 16 bd bb
       -0.013926412 -0.009222119 -0.0095846765 -0.005770466
000340 d9 2f f9 bb bd 66 7c bc e2 21 57 bc 17 57 d9 bb
       -0.007604581 -0.015405354 -0.013130637 -0.0066326964
000350 29 f5 a6 3b 71 0a 94 bc b6 49 0d 3c 53 e1 13 3c
       0.0050951433 -0.018071385 0.008623531 0.009025889
000360 95 68 cb 3a 14 dc 07 38 87 21 c2 bb 97 d4 45 bc
       0.0015518839 3.2391472e-05 -0.005924407 -0.012074611
000370 01 f5 d1 ba 3f ad ce bb 93 41 51 bc 8e 99 3e bb
       -0.0016018451 -0.0063072736 -0.012771982 -0.0029083225
000380 d3 45 35 bc 7f 7f d7 3b 00 de 73 3c 57 4b 2f bc
       -0.011064011 0.006576478 0.014884472 -0.010699115
000390 ef fc 2c bc 13 39 a4 bc 94 17 1c 3c 12 25 c0 bb
       -0.010558351 -0.020046746 0.009527106 -0.005863794
0003a0 ce 38 96 3b a4 28 ac bc 9a e3 97 3b 28 40 63 bc
       0.0045844084 -0.021015473 0.0046352865 -0.0138702765
0003b0 51 92 20 ba b3 1a c2 bb 17 65 8f bb fe 98 5c bb
       -0.00061253185 -0.005923593 -0.0043760645 -0.0033660526
0003c0 a3 e4 2c bb 59 12 aa 3b 8a 63 7a bb f8 be a0 3b
       -0.0026381395 0.0051901755 -0.0038206303 0.0049055777
0003d0 1c 9d 7d bb fb 8b 6a bb c0 50 e2 bb 40 5a e0 bb
       -0.003869838 -0.0035789001 -0.006906599 -0.006846696
0003e0 a4 f5 65 bc 59 ae be bc 06 cb e8 ba c6 c4 6d bc
       -0.014035616 -0.023276495 -0.0017760701 -0.0145122465
0003f0 fe 54 ee bb c6 de 02 bc 23 7c 4d bc 0b 3e 21 bc
       -0.0072733155 -0.007987684 -0.0125418035 -0.009841452

fc.bias f4 [18]
000000 b1 9a f9 3f 11 e6 ee bf 5f 72 4b c0 d5 cd 58 c0
       1.9500333 -1.8663961 -3.1788557 -3.387563
000010 2d ad 77 c0 fb 11 0a c0 cd db 26 c0 4c 12 3a c0
       -3.8699448 -2.1573474 -2.6071656 -2.9073668
000020 cc f7 73 c0 59 90 f5 bf 55 97 b9 bf 3c 15 14 c0
       -3.8119993 -1.9184676 -1.4499308 -2.313796
000030 03 ad 1d c0 e4 2d 13 c0 1e d4 4b c0 51 8b 47 c0
       -2.4636848 -2.299676 -3.1848216 -3.1178782
000040 92 41 96 bf c1 c8 89 bf
       -1.173876 -1.076439

exp_avg f4 [18, 512]
000000 27 92 d4 bc e9 c6 49 bc b1 7b 6a bb 90 e2 0e bb
       -0.025948597 -0.01231549 -0.0035779292 -0.0021802522
000010 5b 06 c7 bb 6e fa a3 ba 1d 3f 65 bb 45 20 18 3b
       -0.0060737557 -0.0012510547 -0.0034980245 0.0023212594
000020 c2 9f aa bb f4 9f 69 bb 57 da dc ba e2 32 5b bb
       -0.005207033 -0.0035648318 -0.0016849738 -0.0033447077
000030 00 65 c7 bb 3d 3d 34 bb 2f 67 87 bb 66 63 60 bb
       -0.006085038 -0.0027502321 -0.0041321735 -0.0034238934
000040 08 90 8c bb d6 4c ec ba 60 51 7e bb 26 59 02 bb
       -0.004289631 -0.001802827 -0.0038805827 -0.0019889562
000050 1f 56 07 bb f2 34 8d bb d8 bb 30 bb af 43 80 bb
       -0.0020650697 -0.00430929 -0.0026967432 -0.0039143185
000060 8d 99 2c bb cf 8d 54 bb 8b 05 68 bb 5a b4 9b bb
       -0.002633664 -0.0032433157 -0.0035403694 -0.004751724
000070 e8 78 41 bb df 39 12 bb 45 79 0f bb 46 49 9d 3a
       -0.0029521529 -0.0022312326 -0.002189235 0.0011999987
000080 64 8c 0e bb 43 b7 3b bb 23 86 e8 b8 e4 4e de ba
       -0.002175116 -0.0028643168 -0.00011087607 -0.0016960767
000090 15 99 69 ba c0 5f c1 ba 0b 11 4d bb 35 04 a2 ba
       -0.00089110556 -0.0014753267 -0.0031290676 -0.0012360873
0000a0 49 5a 1d bb 35 30 1c bb 0c 81 39 bb ab 1a 42 ba
       -0.0024010113 -0.0023832445 -0.0028305678 -0.00074044865
0000b0 3c 6d 08 bb 0c 99 67 bb 93 02 0f bb 95 30 41 bb
       -0.0020817062 -0.0035339026 -0.0021821603 -0.002947842
0000c0 29 ec 10 bb c0 e8 37 bb 9b a3 59 bb b5 f2 76 ba
       -0.0022113419 -0.0028062314 -0.0033209089 -0.00094203214
0000d0 30 ad 88 bb a2 71 28 bb 59 03 dd ba ca 4d 4e bb
       -0.004171036 -0.0025702496 -0.001686196 -0.0031479471
0000e0 19 8f 85 b9 00 ef b3 ba 2e 3b 4e bb 5d 70 02 bb
       -0.00025474353 -0.0013727844 -0.003146838 -0.00199034
0000f0 26 02 2b bb 4e c3 7c ba 32 de c0 ba 10 7a 17 bb
       -0.002609381 -0.000964214 -0.0014714657 -0.0023113526
000100 ee 6c 75 ba b7 47 f9 b9 77 49 56 bb c5 14 a6 ba
       -0.000936224 -0.00047546413 -0.0032697597 -0.0012670985
000110 83 7a 00 bb 2e 4a 27 bb 5c bc d3 ba 75 60 c5 b9
       -0.0019604273 -0.0025526392 -0.0016154158 -0.00037646634
000120 35 d5 13 bb 56 08 76 bb 4b 39 4b ba 28 2e 86 ba
       -0.0022557501 -0.003754159 -0.0007752373 -0.0010237144
000130 55 5a d4 ba e5 0d 4d bb ec 5b 06 bb 2a e7 91 ba
       -0.0016201237 -0.00312888 -0.0020501567 -0.0011131514
000140 5d ff 72 bb 07 35 94 ba 5a ad e8 b9 05 51 92 ba
       -0.0037078478 -0.0011307307 -0.00044379645 -0.0011163062
000150 b7 cb bd ba e8 46 d0 ba 47 ab 0f bb 84 0e 42 ba
       -0.0014480267 -0.0015890272 -0.0021922158 -0.00074026757
000160 24 a8 12 bb 0a 75 2a bb 4b e7 16 bb 18 18 3e bb
       -0.0022378052 -0.0026009702 -0.0023026045 -0.002900606
000170 dd 9c d4 ba 2c f8 a8 ba 00 4c 01 bb 88 dc 89 ba
       -0.0016221065 -0.0012891344 -0.0019729137 -0.0010517994
000180 d0 67 db ba 78 41 92 ba 70 99 89 ba f2 49 1c bb
       -0.0016739313 -0.0011158427 -0.0010497998 -0.0023847786
000190 80 dd c3 ba c4 dc 94 ba 55 a4 2c bb fc 7d 15 ba
       -0.0014943331 -0.0011357297 -0.0026343067 -0.0005702672
0001a0 30 f4 a7 ba 09 7e 4c bb 24 ec 06 bb 16 e3 93 ba
       -0.0012813862 -0.0031203052 -0.0020587528 -0.0011282887
0001b0 e0 4e c9 ba d2 a3 96 ba cd 5c a3 ba 37 72 e6 ba
       -0.001535859 -0.0011492914 -0.001246357 -0.0017581646
0001c0 38 b0 af ba 24 4e 5d ba f2 03 34 bb c0 9b 38 ba
       -0.0013403958 -0.0008442125 -0.0027468172 -0.00070422515
0001d0 e0 af 2a bb 12 12 50 ba d6 d1 1b ba f9 83 b0 ba
       -0.002604477 -0.0007937263 -0.0005944049 -0.0013467065
0001e0 a6 db d3 ba dd 38 9a ba a3 75 0e bb 6c 04 ce ba
       -0.0016163483 -0.0011766214 -0.0021737597 -0.001571787
0001f0 a6 04 65 ba 6e 47 30 bb fb 8b 31 ba 36 f5 3b bb
       -0.00087363494 -0.0026898044 -0.0006772873 -0.0028680093
000200 45 cb ca 39 07 04 5f ba 4b c2 f6 ba 5f 8a 9f ba
       0.0003867989 -0.0008507375 -0.0018826214 -0.0012171975
000210 01 32 34 bb 8a 57 8b ba d0 5e 92 ba 7a ef a0 ba
       -0.0027495625 -0.0010630947 -0.0011167172 -0.0012278401
000220 e1 cc ee ba 98 be c5 ba 45 cf dc ba da b2 b3 ba
       -0.0018219018 -0.0015086709 -0.0016846439 -0.0013709918
000230 fd 15 e9 b9 ba a0 29 ba b7 bd 94 ba 0b 91 17 ba
       -0.00044457606 -0.00064707885 -0.0011348043 -0.0005781806
000240 ef 17 5c ba 88 b2 5b ba 17 41 bb ba 4d 38 93 b9
       -0.00083959004 -0.000838079 -0.0014286366 -0.00028079972
000250 fc d5 58 ba e5 59 ae ba 38 6d f9 ba 5e d1 84 ba
       -0.0008271632 -0.0013301937 -0.0019029742 -0.0010133197
000260 fc c8 b4 ba 0f 13 ce b9 f1 b7 02 bb 4c a4 99 ba
       -0.0013792808 -0.00039305582 -0.0019946063 -0.0011721938
000270 55 3b c3 ba 45 08 bf b9 00 79 9b ba a8 2c d3 ba
       -0.0014895002 -0.0003643652 -0.0011861622 -0.0016111331
000280 3b 9a 8b ba 57 1b 0c bb b3 49 d1 ba ae 74 87 ba
       -0.0010650823 -0.00213786 -0.0015967399 -0.0010334456
000290 5a 48 06 bb f4 ce 56 ba b7 09 7c ba e4 9b ce ba
       -0.0020489902 -0.00081942906 -0.0009614485 -0.0015763012
0002a0 77 2c de ba 8e 4b d9 ba 18 9d 55 ba 39 d5 b4 ba
       -0.0016950507 -0.0016578303 -0.0008148714 -0.0013796455
0002b0 d4 42 0a 38 aa 8f b3 ba 58 a4 ab ba 63 51 24 b9
       3.2964002e-05 -0.0013699431 -0.0013095243 -0.00015670578
0002c0 1d ae 83 ba da a2 9a ba 51 a4 ed b9 89 28 d2 ba
       -0.0010046397 -0.0011797801 -0.00045326588 -0.0016033809
0002d0 20 45 03 bb 98 41 8c ba 6c 90 76 ba 27 66 c2 ba
       -0.0020030215 -0.0010700701 -0.0009405676 -0.0014831469
0002e0 0d 2d a4 ba c5 10 43 b9 a5 27 b8 b9 e8 af d8 ba
       -0.0012525633 -0.00018602896 -0.00035124752 -0.0016531916
0002f0 f4 9e 72 ba 07 ae 0c ba 59 69 ef b9 96 6c 85 ba
       -0.0009255253 -0.0005366508 -0.00045664122 -0.0010179456
000300 b6 15 ad ba fa 1b d1 ba 79 44 50 ba 4d d9 0c ba
       -0.0013205323 -0.0015953772 -0.00079447735 -0.00053729565
000310 b0 9c 43 ba 60 b3 1c ba 01 27 9c ba 4c 87 4b ba
       -0.0007462008 -0.00059776567 -0.001191348 -0.0007763996
000320 10 f9 d0 b9 84 42 7f ba b3 b7 95 ba 1d 85 a2 b9
       -0.00039858418 -0.00097373896 -0.0011422544 -0.00030998225
000330 25 f1 98 ba 10 e4 8a ba a9 03 85 ba 7e 87 ab ba
       -0.0011668546 -0.0010596532 -0.0010148186 -0.0013086644
000340 13 62 8e ba 45 d1 95 ba 6e 9f b3 ba 8b 00 67 ba
       -0.0010862969 -0.0011430165 -0.001370413 -0.00088120316
000350 80 35 2f ba 3d 27 b1 ba b7 23 8e ba 60 93 8f ba
       -0.00066836923 -0.0013515722 -0.0010844384 -0.0010953955
000360 d5 f1 83 ba 24 4c 94 ba 3d cf 2f ba bb e1 db ba
       -0.0010066578 -0.0011314196 -0.0006706601 -0.0016775647
000370 9b aa 49 ba a5 c9 7e ba e5 c6 fe b9 cb f0 61 ba
       -0.00076929637 -0.00097193784 -0.00048594843 -0.000861895
000380 c6 61 63 ba 53 63 23 ba a4 1d e4 b9 01 0a a5 b9
       -0.0008673932 -0.0006232757 -0.00043509633 -0.00031478706
000390 1f 7e 00 bb f1 0e ee b9 97 96 61 ba ec 53 93 ba
       -0.0019606424 -0.0004540603 -0.00086055085 -0.0011240221
0003a0 5b 89 c0 ba cd 86 82 ba 99 99 50 ba 69 e3 81 ba
       -0.0014689373 -0.0009958387 -0.0007957458 -0.0009909692
0003b0 9d 8d 09 ba b5 53 e2 ba 1a 66 17 ba 76 98 4d b9
       -0.0005247237 -0.0017267378 -0.0005775407 -0.0001960712
0003c0 7f ef 31 ba 0f b7 75 ba 7b 1e 4d ba ea 5f ec b9
       -0.0006787702 -0.0009373286 -0.00078246713 -0.0004508489
0003d0 1d d5 61 ba ac 05 3b ba 30 73 cb b9 ca 60 91 ba
       -0.0008614825 -0.0007134329 -0.00038805 -0.0011091467
0003e0 18 cf 7d ba c4 ab 62 ba 74 03 34 ba 96 0f 3a ba
       -0.00096820435 -0.0008646811 -0.00068669696 -0.00070976594
0003f0 a1 68 9e ba 22 08 5d b9 c4 f5 cc b9 0c 23 ab ba
       -0.0012085625 -0.00021079232 -0.00039093022 -0.001305671

exp_avg_sq f4 [18, 512]
000000 41 ea ac 3a 9e bc 3a 3a 23 cc 0d 3a 93 63 35 3a
       0.0013192372 0.0007123443 0.0005409142 0.000691944
000010 df fa 9e 39 07 68 a2 39 a2 8b 85 39 34 c8 79 39
       0.00030323022 0.00030976554 0.0002547177 0.00023821072
000020 ee f1 59 39 ff c7 45 39 b5 d8 29 39 b8 8c 20 39
       0.00020784858 0.00018861888 0.00016197826 0.00015311211
000030 85 18 1d 39 5a 45 21 39 f9 11 24 39 94 b3 f4 38
       0.00014981821 0.00015379992 0.00015646954 0.00011668276
000040 0d 20 03 39 12 eb f5 38 30 00 06 39 ac ae e3 38
       0.00012505073 0.000117262956 0.00012779306 0.00010856739
000050 96 81 d3 38 b3 59 03 39 02 bb b9 38 ec 44 cd 38
       0.00010085401 0.00012526549 8.85632e-05 9.7879994e-05
000060 bb 61 b7 38 64 2e 9f 38 14 35 be 38 db 25 a2 38
       8.744324e-05 7.590352e-05 9.0697926e-05 7.731813e-05
000070 e8 60 a2 38 54 c1 91 38 c7 cd a4 38 a0 52 99 38
       7.742812e-05 6.950149e-05 7.8584584e-05 7.3109986e-05
000080 23 2d 87 38 88 a5 80 38 7c 00 a3 38 a3 0b 7a 38
       6.445709e-05 6.134348e-05 7.772536e-05 5.9615482e-05
000090 c1 38 5c 38 26 7b 74 38 67 fb 75 38 d9 39 71 38
       5.2504944e-05 5.8288824e-05 5.864669e-05 5.7512752e-05
0000a0 cf 59 56 38 49 cf 67 38 d0 00 43 38 56 4e 57 38
       5.1105217e-05 5.526774e-05 4.649238e-05 5.133295e-05
0000b0 01 9d 74 38 e1 3f 53 38 5e 85 44 38 3b 88 38 38
       5.8320355e-05 5.0365812e-05 4.685425e-05 4.3995893e-05
0000c0 d2 95 34 38 ba 0f 39 38 09 a9 2f 38 1b ed 27 38
       4.3054875e-05 4.4122084e-05 4.1880678e-05 4.0036724e-05
0000d0 8f 15 40 38 d9 61 19 38 81 67 4e 38 a4 b9 30 38
       4.5796445e-05 3.656917e-05 4.9210623e-05 4.213456e-05
0000e0 67 91 1a 38 e2 62 22 38 15 5b 29 38 69 93 0d 38
       3.6851878e-05 3.87159e-05 4.0377567e-05 3.3754306e-05
0000f0 22 0e 0b 38 09 e8 17 38 1c fb 10 38 d0 3b 05 38
       3.3153345e-05 3.6217305e-05 3.456614e-05 3.1765376e-05
000100 5a 9a 07 38 8f ee 16 38 3a 54 01 38 27 1b 03 38
       3.233026e-05 3.5984962e-05 3.083444e-05 3.125812e-05
000110 42 70 f8 37 c3 1d 19 38 19 90 0a 38 66 bc f1 37
       2.9616178e-05 3.650576e-05 3.3035965e-05 2.8817169e-05
000120 b8 68 e2 37 77 0e e1 37 ea bb da 37 ca 45 eb 37
       2.6990063e-05 2.6828826e-05 2.607513e-05 2.8046681e-05
000130 8c 0a e3 37 53 f3 13 38 cf e1 de 37 3b ee d0 37
       2.706542e-05 3.5274144e-05 2.6569613e-05 2.4906467e-05
000140 38 c6 d6 37 67 9c cc 37 08 cc d0 37 37 6c be 37
       2.560309e-05 2.4391526e-05 2.4890542e-05 2.2700156e-05
000150 c6 14 d6 37 f9 ed be 37 75 15 c2 37 48 ae b4 37
       2.5520461e-05 2.276058e-05 2.3136594e-05 2.1538828e-05
000160 8d a9 b7 37 ae b6 b2 37 64 b6 ad 37 1b ee d2 37
       2.1894253e-05 2.130432e-05 2.070814e-05 2.5144827e-05
000170 9e 92 b9 37 7d 49 a6 37 5c 70 a9 37 15 8f ab 37
       2.2121993e-05 1.9822963e-05 2.0198691e-05 2.0451416e-05
000180 47 ad b5 37 62 d2 a0 37 26 78 b6 37 1a bc bb 37
       2.165757e-05 1.9171453e-05 2.175204e-05 2.2379729e-05
000190 58 b9 a4 37 11 4f 96 37 9f 8e 9b 37 fd a7 91 37
       1.963663e-05 1.7918212e-05 1.8543853e-05 1.7363573e-05
0001a0 30 1c 96 37 bc d4 a6 37 45 00 a1 37 2f e0 89 37
       1.789452e-05 1.9887804e-05 1.9192821e-05 1.6436066e-05
0001b0 37 e0 a7 37 40 bb 8c 37 bb 95 94 37 83 16 89 37
       2.001236e-05 1.6776496e-05 1.7712699e-05 1.6342156e-05
0001c0 cb bf 8a 37 81 c8 85 37 a2 aa 88 37 82 83 83 37
       1.6540193e-05 1.5948202e-05 1.629192e-05 1.5677655e-05
0001d0 05 7d 9d 37 87 a0 81 37 ea c9 84 37 c2 93 7d 37
       1.8774075e-05 1.545275e-05 1.582965e-05 1.5114378e-05
0001e0 8f 55 84 37 52 78 73 37 26 c6 7d 37 b0 85 66 37
       1.5775468e-05 1.4511943e-05 1.512611e-05 1.3740195e-05
0001f0 43 6d 81 37 fb 89 63 37 17 7c 7d 37 35 af 82 37
       1.5428877e-05 1.356238e-05 1.5108867e-05 1.5578795e-05
000200 25 7f 78 37 e5 46 68 37 86 e6 5e 37 b9 44 67 37
       1.4811555e-05 1.3844784e-05 1.3285904e-05 1.3784674e-05
000210 0f 49 6f 37 fd 80 6e 37 70 b7 60 37 f8 8f 4f 37
       1.426252e-05 1.4215938e-05 1.339415e-05 1.2371682e-05
000220 ff 65 65 37 de 1f 56 37 fb b5 59 37 da f2 4e 37
       1.36732115e-05 1.2762814e-05 1.2976579e-05 1.23351e-05
000230 f3 a1 5f 37 7a 48 50 37 1d 2c 62 37 41 32 52 37
       1.33295425e-05 1.2414641e-05 1.3480921e-05 1.2528676e-05
000240 5c 96 4a 37 e4 8c 48 37 76 08 66 37 9d 49 4c 37
       1.20751465e-05 1.1953733e-05 1.3711038e-05 1.2176487e-05
000250 96 7d 52 37 9b 8a 53 37 ca 0f 36 37 71 b0 45 37
       1.2546216e-05 1.2608852e-05 1.08517215e-05 1.1783196e-05
000260 1b 6c 3b 37 e8 bd 45 37 a9 ef 43 37 b2 56 35 37
       1.1171239e-05 1.1786331e-05 1.1678706e-05 1.0808626e-05
000270 33 02 32 37 be dd 41 37 65 25 39 37 f2 7f 37 37
       1.0610139e-05 1.1555325e-05 1.1035566e-05 1.093744e-05
000280 f6 78 3a 37 67 18 32 37 a0 0a 35 37 74 80 2b 37
       1.1114627e-05 1.0615308e-05 1.07909145e-05 1.0222302e-05
000290 bd ee 3c 37 ef 2a 2e 37 5b 1c 23 37 55 8c 2a 37
       1.1261259e-05 1.0381204e-05 9.722159e-06 1.0165463e-05
0002a0 d1 68 2b 37 ab 4e 24 37 8d 22 1f 37 5d b6 22 37
       1.0216799e-05 9.793478e-06 9.485183e-06 9.698412e-06
0002b0 d6 66 29 37 1c 78 27 37 02 f5 1d 37 e4 5d 16 37
       1.0097128e-05 9.981941e-06 9.414975e-06 8.962557e-06
0002c0 c4 52 1a 37 64 bb 1a 37 4f ca 1a 37 19 5b 1e 37
       9.198386e-06 9.222746e-06 9.226219e-06 9.438744e-06
0002d0 e2 0a 17 37 18 49 11 37 0a 79 17 37 0e a2 11 37
       9.002835e-06 8.659692e-06 9.028483e-06 8.680405e-06
0002e0 66 79 17 37 34 fc 13 37 d9 75 1a 37 a3 5e 1f 37
       9.028567e-06 8.820603e-06 9.206554e-06 9.499173e-06
0002f0 3c 3a 11 37 cb bd 15 37 64 09 0d 37 a8 5e 1b 37
       8.656232e-06 8.925282e-06 8.406441e-06 9.260759e-06
000300 fb b9 04 37 da 28 10 37 80 e6 18 37 2d 4e 07 37
       7.911115e-06 8.59258e-06 9.1135735e-06 8.064829e-06
000310 34 5e 01 37 dd 2d 14 37 82 6b 02 37 c8 32 17 37
       7.710933e-06 8.832166e-06 7.773635e-06 9.012125e-06
000320 7b b3 0f 37 61 09 05 37 e0 29 0c 37 46 2e 01 37
       8.565253e-06 7.929601e-06 8.3544e-06 7.699773e-06
000330 69 2a 06 37 93 f6 04 37 12 b8 f5 36 41 6e 0f 37
       7.996897e-06 7.925223e-06 7.3229976e-06 8.549135e-06
000340 90 85 fc 36 27 54 0d 37 92 20 0c 37 e2 09 01 37
       7.525734e-06 8.423848e-06 8.352234e-06 7.6913e-06
000350 0d 46 f9 36 01 88 f7 36 68 10 00 37 6c 2c f6 36
       7.4289333e-06 7.3770066e-06 7.633214e-06 7.3365427e-06
000360 04 d1 f3 36 75 17 ef 36 5b c9 e7 36 46 25 f5 36
       7.266297e-06 7.125486e-06 6.9077773e-06 7.305908e-06
000370 a3 e3 f4 36 ba ac ed 36 7f 79 fc 36 dd 62 f7 36
       7.298267e-06 7.0832584e-06 7.5243292e-06 7.372683e-06
000380 85 02 ed 36 c7 6e db 36 1b 10 e8 36 35 87 f8 36
       7.0634437e-06 6.539605e-06 6.9160137e-06 7.406716e-06
000390 b3 6d de 36 f4 02 e3 36 73 00 e9 36 a4 b6 e6 36
       6.6288862e-06 6.765471e-06 6.9439934e-06 6.8757963e-06
0003a0 7f 26 f0 36 1c 45 de 36 6a 86 ea 36 34 f4 e3 36
       7.157039e-06 6.624161e-06 6.9893913e-06 6.793556e-06
0003b0 64 ad dc 36 a4 d4 da 36 ca 38 e0 36 5c 8d dc 36
       6.5766963e-06 6.521661e-06 6.6823313e-06 6.5729673e-06
0003c0 ba 82 db 36 2e cd cc 36 94 7d cf 36 a0 f4 cf 36
       6.541927e-06 6.10356e-06 6.1837e-06 6.197559e-06
0003d0 81 e1 d1 36 62 78 d8 36 7d f4 ca 36 e4 87 ca 36
       6.2549375e-06 6.451316e-06 6.0485313e-06 6.035889e-06
0003e0 4b c0 c2 36 c1 b9 cd 36 c6 bf c6 36 10 5f c3 36
       5.8040364e-06 6.1311007e-06 5.923185e-06 5.8225196e-06
0003f0 1b 5e cc 36 82 5e ca 36 58 10 cf 36 8c 52 cd 36
       6.090629e-06 6.0310713e-06 6.1709834e-06 6.119086e-06

exp_avg f4 [18]
000000 20 0d 71 ba 8d 2f 06 38 c8 be 5f 39 e8 c1 ed 37
       -0.0009195376 3.1992375e-05 0.00021338009 2.8342896e-05
000010 2c d9 82 39 f0 f9 8a b7 67 fc 07 39 79 13 fd 38
       0.00024957338 -1.6567268e-05 0.0001296863 0.00012067607
000020 7b 06 01 3a 94 cb e6 39 07 32 8d b6 7e a4 c6 39
       0.0004921925 0.00044020696 -4.2079514e-06 0.0003788806
000030 9a ed 41 39 ad 83 62 38 ce a6 38 39 0f f4 8a 38
       0.00018494428 5.400523e-05 0.00017609747 6.625812e-05
000040 3b c5 da 37 8c 15 68 37
       2.6079468e-05 1.3833294e-05

exp_avg_sq f4 [18]
000000 f0 ba 3f 36 38 c2 75 32 45 8f 6a 34 6c 7e 1f 34
       2.857003e-06 1.4305037e-08 2.184507e-07 1.4854021e-07
000010 c2 ef 6c 34 65 13 4d 34 26 08 00 35 bc d7 fd 34
       2.2066436e-07 1.9099168e-07 4.7695573e-07 4.728189e-07
000020 83 a9 2f 35 cb 0f 0d 36 44 4d b9 35 12 14 76 35
       6.543925e-07 2.101983e-06 1.3806061e-06 9.167135e-07
000030 4a cb 5d 35 e7 ae 5b 34 d3 c8 dc 34 31 b8 43 34
       8.262474e-07 2.0459593e-07 4.1124312e-07 1.8227799e-07
000040 5e 21 bc 31 00 23 72 31
       5.4753135e-09 3.523553e-09
